…
2022-03-16 06:12:50.005705: I tensorflow/core/common_runtime/gpu/gpu_device.cc:1525] Created device /job:localhost/replica:0/task:0/device:GPU:0 with 4236 MB memory:  -> device: 0, name: NVIDIA GeForce GTX 1660, pci bus id: 0000:29:00.0, compute capability: 7.5
INFO:root:Features selected: spectrogram
INFO:root:Dataset loaded with 51173 on training and 5686 on validation.
INFO:root:Loading Keras generator...
Model: "sequential"
_________________________________________________________________
 Layer (type)                Output Shape              Param #   
=================================================================
 conv2d (Conv2D)             (None, 98, 248, 96)       4800      
                                                                 
 lambda (Lambda)             (None, 98, 248, 96)       0         
                                                                 
 max_pooling2d (MaxPooling2D  (None, 49, 124, 96)      0         
 )                                                               
                                                                 
 zero_padding2d (ZeroPadding  (None, 51, 126, 96)      0         
 2D)                                                             
                                                                 
 conv2d_1 (Conv2D)           (None, 24, 61, 256)       614656    
                                                                 
 lambda_1 (Lambda)           (None, 24, 61, 256)       0         
                                                                 
 max_pooling2d_1 (MaxPooling  (None, 12, 30, 256)      0         
 2D)                                                             
                                                                 
 zero_padding2d_1 (ZeroPaddi  (None, 14, 32, 256)      0         
 ng2D)                                                           
                                                                 
 conv2d_2 (Conv2D)           (None, 12, 30, 512)       1180160   
                                                                 
 zero_padding2d_2 (ZeroPaddi  (None, 14, 32, 512)      0         
 ng2D)                                                           
                                                                 
 conv2d_3 (Conv2D)           (None, 12, 30, 512)       2359808   
                                                                 
 zero_padding2d_3 (ZeroPaddi  (None, 14, 32, 512)      0         
 ng2D)                                                           
                                                                 
 conv2d_4 (Conv2D)           (None, 12, 30, 512)       2359808   
                                                                 
 max_pooling2d_2 (MaxPooling  (None, 6, 15, 512)       0         
 2D)                                                             
                                                                 
 flatten (Flatten)           (None, 46080)             0         
                                                                 
 dense (Dense)               (None, 4096)              188747776 
                                                                 
 dropout (Dropout)           (None, 4096)              0         
                                                                 
 dense_1 (Dense)             (None, 4096)              16781312  
                                                                 
 dropout_1 (Dropout)         (None, 4096)              0         
                                                                 
 dense_2 (Dense)             (None, 16)                65552     
                                                                 
=================================================================
Total params: 212,113,872
Trainable params: 212,113,872
Non-trainable params: 0
_________________________________________________________________
INFO:root:Training model: chatfield14...
Epoch 1/200
2022-03-16 06:12:52.548386: I tensorflow/stream_executor/cuda/cuda_dnn.cc:366] Loaded cuDNN version 8302
…
