…
Your GPU will likely run quickly with dtype policy mixed_float16 as it has compute capability of at least 7.0. Your GPU: NVIDIA GeForce GTX 1660, compute capability 7.5
INFO:root:Compute dtype: float16
INFO:root:Variable dtype: float32
INFO:root:Dataset loaded with 32274 on training and 3586 on validation.
INFO:root:Loading Keras generator...
INFO:root:Showing model summary for chatfield14
Model: "sequential"
_________________________________________________________________
 Layer (type)                Output Shape              Param #   
=================================================================
 conv2d (Conv2D)             (None, 61, 248, 96)       4800      
                                                                 
 batch_normalization (BatchN  (None, 61, 248, 96)      384       
 ormalization)                                                   
                                                                 
 re_lu (ReLU)                (None, 61, 248, 96)       0         
                                                                 
 max_pooling2d (MaxPooling2D  (None, 30, 124, 96)      0         
 )                                                               
                                                                 
 zero_padding2d (ZeroPadding  (None, 32, 126, 96)      0         
 2D)                                                             
                                                                 
 conv2d_1 (Conv2D)           (None, 14, 61, 256)       614656    
                                                                 
 batch_normalization_1 (Batc  (None, 14, 61, 256)      1024      
 hNormalization)                                                 
                                                                 
 re_lu_1 (ReLU)              (None, 14, 61, 256)       0         
                                                                 
 max_pooling2d_1 (MaxPooling  (None, 7, 30, 256)       0         
 2D)                                                             
                                                                 
 zero_padding2d_1 (ZeroPaddi  (None, 9, 32, 256)       0         
 ng2D)                                                           
                                                                 
 conv2d_2 (Conv2D)           (None, 7, 30, 512)        1180160   
                                                                 
 zero_padding2d_2 (ZeroPaddi  (None, 9, 32, 512)       0         
 ng2D)                                                           
                                                                 
 conv2d_3 (Conv2D)           (None, 7, 30, 512)        2359808   
                                                                 
 zero_padding2d_3 (ZeroPaddi  (None, 9, 32, 512)       0         
 ng2D)                                                           
                                                                 
 conv2d_4 (Conv2D)           (None, 7, 30, 512)        2359808   
                                                                 
 max_pooling2d_2 (MaxPooling  (None, 3, 15, 512)       0         
 2D)                                                             
                                                                 
 flatten (Flatten)           (None, 23040)             0         
                                                                 
 dense (Dense)               (None, 4096)              94375936  
                                                                 
 dropout (Dropout)           (None, 4096)              0         
                                                                 
 dense_1 (Dense)             (None, 4096)              16781312  
                                                                 
 dropout_1 (Dropout)         (None, 4096)              0         
                                                                 
 dense_2 (Dense)             (None, 16)                65552     
                                                                 
=================================================================
Total params: 117,743,440
Trainable params: 117,742,736
Non-trainable params: 704
_________________________________________________________________
INFO:root:Training model: chatfield14...
Epoch 1/100
2022-06-08 15:36:51.649502: I tensorflow/stream_executor/cuda/cuda_dnn.cc:368] Loaded cuDNN version 8400
…
