…
Your GPU will likely run quickly with dtype policy mixed_float16 as it has compute capability of at least 7.0. Your GPU: NVIDIA GeForce GTX 1660, compute capability 7.5
INFO:root:Compute dtype: float16
INFO:root:Variable dtype: float32
INFO:root:Dataset loaded with 32274 on training and 3586 on validation.
INFO:root:Loading Keras generator...
INFO:root:Showing model summary for draghici20_crnn
Model: "sequential"
_________________________________________________________________
 Layer (type)                Output Shape              Param #   
=================================================================
 conv2d (Conv2D)             (None, 188, 499, 64)      640       
                                                                 
 batch_normalization (BatchN  (None, 188, 499, 64)     256       
 ormalization)                                                   
                                                                 
 max_pooling2d (MaxPooling2D  (None, 94, 249, 64)      0         
 )                                                               
                                                                 
 conv2d_1 (Conv2D)           (None, 92, 247, 128)      73856     
                                                                 
 batch_normalization_1 (Batc  (None, 92, 247, 128)     512       
 hNormalization)                                                 
                                                                 
 max_pooling2d_1 (MaxPooling  (None, 46, 123, 128)     0         
 2D)                                                             
                                                                 
 conv2d_2 (Conv2D)           (None, 44, 121, 256)      295168    
                                                                 
 batch_normalization_2 (Batc  (None, 44, 121, 256)     1024      
 hNormalization)                                                 
                                                                 
 conv2d_3 (Conv2D)           (None, 42, 119, 256)      590080    
                                                                 
 batch_normalization_3 (Batc  (None, 42, 119, 256)     1024      
 hNormalization)                                                 
                                                                 
 max_pooling2d_2 (MaxPooling  (None, 21, 59, 256)      0         
 2D)                                                             
                                                                 
 conv2d_4 (Conv2D)           (None, 19, 57, 512)       1180160   
                                                                 
 batch_normalization_4 (Batc  (None, 19, 57, 512)      2048      
 hNormalization)                                                 
                                                                 
 conv2d_5 (Conv2D)           (None, 17, 55, 512)       2359808   
                                                                 
 batch_normalization_5 (Batc  (None, 17, 55, 512)      2048      
 hNormalization)                                                 
                                                                 
 max_pooling2d_3 (MaxPooling  (None, 8, 27, 512)       0         
 2D)                                                             
                                                                 
 conv2d_6 (Conv2D)           (None, 6, 25, 512)        2359808   
                                                                 
 batch_normalization_6 (Batc  (None, 6, 25, 512)       2048      
 hNormalization)                                                 
                                                                 
 max_pooling2d_4 (MaxPooling  (None, 3, 12, 512)       0         
 2D)                                                             
                                                                 
 permute (Permute)           (None, 12, 3, 512)        0         
                                                                 
 reshape (Reshape)           (None, 12, 1536)          0         
                                                                 
 bidirectional (Bidirectiona  (None, 512)              3672064   
 l)                                                              
                                                                 
 dense (Dense)               (None, 16)                8208      
                                                                 
=================================================================
Total params: 10,548,752
Trainable params: 10,544,272
Non-trainable params: 4,480
_________________________________________________________________
INFO:root:Training model: draghici20_crnn...
Epoch 1/100
2022-06-08 18:39:17.456989: I tensorflow/stream_executor/cuda/cuda_dnn.cc:368] Loaded cuDNN version 8400
…
