…
Your GPU will likely run quickly with dtype policy mixed_float16 as it has compute capability of at least 7.0. Your GPU: NVIDIA GeForce GTX 1660, compute capability 7.5
INFO:root:Compute dtype: float16
INFO:root:Variable dtype: float32
INFO:root:Dataset loaded with 32274 on training and 3586 on validation.
INFO:root:Loading Keras generator...
INFO:root:Showing model summary for shon18
Model: "sequential"
_________________________________________________________________
 Layer (type)                Output Shape              Param #   
=================================================================
 permute (Permute)           (None, 501, 190)          0         
                                                                 
 conv1d (Conv1D)             (None, 497, 500)          475500    
                                                                 
 batch_normalization (BatchN  (None, 497, 500)         2000      
 ormalization)                                                   
                                                                 
 re_lu (ReLU)                (None, 497, 500)          0         
                                                                 
 conv1d_1 (Conv1D)           (None, 246, 500)          1750500   
                                                                 
 batch_normalization_1 (Batc  (None, 246, 500)         2000      
 hNormalization)                                                 
                                                                 
 re_lu_1 (ReLU)              (None, 246, 500)          0         
                                                                 
 conv1d_2 (Conv1D)           (None, 246, 500)          250500    
                                                                 
 batch_normalization_2 (Batc  (None, 246, 500)         2000      
 hNormalization)                                                 
                                                                 
 re_lu_2 (ReLU)              (None, 246, 500)          0         
                                                                 
 conv1d_3 (Conv1D)           (None, 246, 3000)         1503000   
                                                                 
 batch_normalization_3 (Batc  (None, 246, 3000)        12000     
 hNormalization)                                                 
                                                                 
 re_lu_3 (ReLU)              (None, 246, 3000)         0         
                                                                 
 global_average_pooling1d (G  (None, 3000)             0         
 lobalAveragePooling1D)                                          
                                                                 
 dense (Dense)               (None, 1500)              4501500   
                                                                 
 batch_normalization_4 (Batc  (None, 1500)             6000      
 hNormalization)                                                 
                                                                 
 re_lu_4 (ReLU)              (None, 1500)              0         
                                                                 
 dense_1 (Dense)             (None, 600)               900600    
                                                                 
 batch_normalization_5 (Batc  (None, 600)              2400      
 hNormalization)                                                 
                                                                 
 re_lu_5 (ReLU)              (None, 600)               0         
                                                                 
 dense_2 (Dense)             (None, 16)                9616      
                                                                 
=================================================================
Total params: 9,417,616
Trainable params: 9,404,416
Non-trainable params: 13,200
_________________________________________________________________
INFO:root:Training model: shon18...
Epoch 1/100
2022-04-01 23:42:02.889361: I tensorflow/stream_executor/cuda/cuda_dnn.cc:366] Loaded cuDNN version 8201
…
