…
Loading Osing: 
- JEO-20070129.wav (time: 0.0)
- JEO-20070321.wav (time: 0.1)
Loading Ranu Pane: 
- JETR-2002-B.wav (time: 0.1)
- JETR-2002-C.wav (time: 0.3)
- JETR-2002-A.wav (time: 0.1)
- JETR-2002-DE.wav (time: 0.6)
Done!
Loaded dataset size in RAM: 3.21GB
[TF] Using [PhysicalDevice(name='/physical_device:GPU:0', device_type='GPU')]
Using shape: (129, 150, 1)
Model: "sequential"
_________________________________________________________________
 Layer (type)                Output Shape              Param #   
=================================================================
 conv2d (Conv2D)             (None, 127, 148, 32)      320       
                                                                 
 max_pooling2d (MaxPooling2D  (None, 63, 74, 32)       0         
 )                                                               
                                                                 
 conv2d_1 (Conv2D)           (None, 61, 72, 64)        18496     
                                                                 
 max_pooling2d_1 (MaxPooling  (None, 30, 36, 64)       0         
 2D)                                                             
                                                                 
 conv2d_2 (Conv2D)           (None, 28, 34, 128)       73856     
                                                                 
 max_pooling2d_2 (MaxPooling  (None, 14, 17, 128)      0         
 2D)                                                             
                                                                 
 conv2d_3 (Conv2D)           (None, 12, 15, 256)       295168    
                                                                 
 max_pooling2d_3 (MaxPooling  (None, 6, 7, 256)        0         
 2D)                                                             
                                                                 
 flatten (Flatten)           (None, 10752)             0         
                                                                 
 dense (Dense)               (None, 32)                344096    
                                                                 
 dense_1 (Dense)             (None, 64)                2112      
                                                                 
 dense_2 (Dense)             (None, 128)               8320      
                                                                 
 dense_3 (Dense)             (None, 16)                2064      
                                                                 
=================================================================
Total params: 744,432
Trainable params: 744,432
Non-trainable params: 0
_________________________________________________________________
Epoch 1/200
  1/128 [..............................] - ETA: 5:16 - loss: 2.7568 - categorical_accuracy: 0.0000e+00 - preci
…
