…
INFO:tensorflow:Mixed precision compatibility check (mixed_float16): OK
Your GPU will likely run quickly with dtype policy mixed_float16 as it has compute capability of at least 7.0. Your GPU: NVIDIA GeForce GTX 1660, compute capability 7.5
INFO:root:Compute dtype: float16
INFO:root:Variable dtype: float32
INFO:root:Dataset loaded with 64368 on training and 7152 on validation.
INFO:root:Loading Keras generator...
Model: "sequential"
_________________________________________________________________
 Layer (type)                Output Shape              Param #   
=================================================================
 flatten (Flatten)           (None, 95190)             0         
                                                                 
 dense (Dense)               (None, 50)                4759550   
                                                                 
 batch_normalization (BatchN  (None, 50)               200       
 ormalization)                                                   
                                                                 
 dense_1 (Dense)             (None, 75)                3825      
                                                                 
 batch_normalization_1 (Batc  (None, 75)               300       
 hNormalization)                                                 
                                                                 
 dense_2 (Dense)             (None, 100)               7600      
                                                                 
 batch_normalization_2 (Batc  (None, 100)              400       
 hNormalization)                                                 
                                                                 
 dropout (Dropout)           (None, 100)               0         
                                                                 
 dense_3 (Dense)             (None, 16)                1616      
                                                                 
=================================================================
Total params: 4,773,491
Trainable params: 4,773,041
Non-trainable params: 450
_________________________________________________________________
INFO:root:Training model: warohma18...
Epoch 1/100
  1/128 [..............................] - ETA: 4:22 - loss: 6.84
…
